…
[1m797/797[0m [32m━━━━━━━━━━━━━━━━━━━━[0m[37m[0m [1m2s[0m 2ms/step - accuracy: 0.9219 - loss: 0.2062 - val_accuracy: 0.8810 - val_loss: 0.3658

=================================================================
ETAPE 5 -- RESEAU CONVOLUTIF (CNN)
=================================================================
Forme pour CNN : (60000, 28, 28, 1)
Model: "sequential_1"
┌─────────────────────────────────┬────────────────────────┬───────────────┐
│ Layer (type)                    │ Output Shape           │       Param # │
├─────────────────────────────────┼────────────────────────┼───────────────┤
│ conv2d (Conv2D)                 │ (None, 26, 26, 32)     │           320 │
├─────────────────────────────────┼────────────────────────┼───────────────┤
│ max_pooling2d (MaxPooling2D)    │ (None, 13, 13, 32)     │             0 │
├─────────────────────────────────┼────────────────────────┼───────────────┤
│ conv2d_1 (Conv2D)               │ (None, 11, 11, 64)     │        18,496 │
├─────────────────────────────────┼────────────────────────┼───────────────┤
│ max_pooling2d_1 (MaxPooling2D)  │ (None, 5, 5, 64)       │             0 │
├─────────────────────────────────┼────────────────────────┼───────────────┤
│ flatten_1 (Flatten)             │ (None, 1600)           │             0 │
├─────────────────────────────────┼────────────────────────┼───────────────┤
│ dense_3 (Dense)                 │ (None, 64)             │       102,464 │
├─────────────────────────────────┼────────────────────────┼───────────────┤
│ dropout (Dropout)               │ (None, 64)             │             0 │
├─────────────────────────────────┼────────────────────────┼───────────────┤
│ dense_4 (Dense)                 │ (None, 10)             │           650 │
└─────────────────────────────────┴────────────────────────┴───────────────┘
 Total params: 121,930 (476.29 KB)
 Trainable params: 121,930 (476.29 KB)
 Non-trainable params: 0 (0.00 B)

Entrainement du CNN (10 epoques)...
Epoch 1/10

[1m  1/797[0m [37m━━━━━━━━━━━━━━━━━━━━[0m [1m11:33[0m 871ms/step - accuracy: 0.0781 - loss: 2.3308
[1m 10/797[0m [37m━━━━━━━━━━━━━━━━━━━━[0m [1m4s[0m 6ms/step - accuracy: 0.1672 - loss: 2.2484     
…
